outputs/loco_breakfast_box_2stage/density_model/autoencoder_model.pt (torch, 432601 bytes, 8 tensors)

encoder.0.weight f4 [128, 384]
00000000: 33af 90bc 1493 edbc 324a c73b 1a8e 823b
00000010: 14fc a83d 03ef 8b3c 2094 c2bc 1e43 14bf
00000020: 9d16 12bd 8ff9 8e3c aed2 c13c a290 103d
00000030: 816b 023e 9252 49bd a69f 1fbd ae4a b4bd
00000040: d926 6bbd 40cb bbbc f3d8 d83d fdae c4bd
00000050: 0f68 5abd 75ba 7d3d 7bbd 7f3c 4dad e4bc
00000060: 9362 07bb 4427 383d ec7a 853d 1431 013d
00000070: df33 543d d05c b53c 3b85 9abd 4e7e 763d
00000080: 30c1 1ebc c68b 63bc ec0c f0bc 0281 fbbc
00000090: fbd2 edbc 14ec c4bd 6b4e 93be 7fb9 26bb
000000a0: dd39 d8bc 139b c23b 1fe3 7bbc 02f6 623c
000000b0: 31b7 983c 79dd 60bc b86d d63c e9d9 0e3b
000000c0: 0d0d 62bd daed 08bd 399f 9ebd 0ab1 f8bb
000000d0: 3bfa 30bc fc25 b0bc 94c3 11bd 8834 f7ba
000000e0: f427 cebc 708b 42bc 1fa6 013d 5372 5cbc
000000f0: 65ed 35bd 095f 8b3c 41b3 32bb e854 533c
00000100: 5ecd 0b3d 360a 6fbd 5813 f03c 120c bebc
00000110: 6447 58bd cfcd cdbc c27c 0abe b752 c4bc
00000120: d113 fe3c c423 8b3d e674 38bb 5825 a53d
00000130: 3ab5 1c3d 5e02 34bd bdb0 3c3d e7d8 903c
00000140: c148 283d 032c d5bd c5d6 c8bc 3d42 2bbb
00000150: 4dfa 283c 6495 a3bc e258 c7bc 2757 c73c
00000160: 148a 3c3d 94bd 30be 9f2b 283c eaaa 5cbb
00000170: 09e2 e8bc 4024 de3b d3b8 a73d 39f9 d93c
00000180: a397 89bd f639 a83c e603 313e cc7c 183d
00000190: 337a febd a927 473c e14c 5cbd 8fc4 d5bc
000001a0: 8b51 43bd 903a 40bd 145c f6bc 8e6b 11ba
000001b0: 9e5c 52bd a80e 22bd 4a2d 10bd e347 5fbc
000001c0: 6725 903c f4a0 a2bc 06e0 1ebc 36f2 b1bc
000001d0: 2c64 683d 13c8 35bd 5ea0 29bd aa9b 453d
000001e0: 1c54 0abc 2470 2c3d 0ea8 3b3c 53cb 09bd
000001f0: dea7 00bc dcfb 20be a132 573d 3ae4 b7bc
00000200: 5997 86bd f27f 8d3c f3de 643c b150 043d
00000210: 6633 aa3c 3c42 07bd 84ce 463d 0420 873d
00000220: 3b47 1abd 7bc0 09bc fae7 623d bded abbc
00000230: fd82 303b 6a23 24bc 598a 9b3c 9a13 47bd
00000240: b35c 513e f361 9e3c 2478 d2bb c45c 14bd
00000250: a7fb fabc 1fd8 7c3c 63b5 49bd aaa8 16bd
00000260: 27bc 0ebd feec 58bd c2e3 913b 230a a7bc
00000270: 23a7 2c3f 4103 a23d 397b a33c 587a b4bc
00000280: 7a4e 523d ef8f ca3c 3e8a 5b3d c373 423b
00000290: 6c92 7c3c 2b39 1b3d 9e20 c13c 6136 0c3d
000002a0: e835 273c 3895 d83c e77a 543d ca11 e63c
000002b0: 826c 1dbc 77ca 21bd 2cf7 2abc cc84 2b3d
000002c0: f38e ccbc f680 72bd 5ee2 343d be74 0e3c
000002d0: 5212 17be 1130 d13b 7113 5abd cb67 b2bc
000002e0: f552 dabc 05d8 8fbd a0a3 043d 4193 243d
000002f0: d2fb 0bbd cd54 3bbd 7d42 313d 8f34 e5bc
00000300: 40ec 643b 076b 013d 7d33 423d ceb1 fc3a
00000310: e25d 753c 5c92 22be ae24 333e 5418 ae3c
00000320: 1af4 6cbd 784f e9bb 29d8 36bd f6a8 3dbc
00000330: 7a34 c43b c48c 08bd 6f64 40bc b474 9b3d
00000340: 3adc 32be cc65 f33c 68ad d0bc 97c8 923c
00000350: f607 05be 99c5 b7bc 49fa e7bd bb16 903c
00000360: 315c 423d 03c2 b13d 9ec0 ab3c 357e 663f
00000370: 4efc 64bd 1864 cabc 8a5e ec3b 51ba c6bc
00000380: 9652 373c 3e87 4cbd ce0c 6cbc d8a1 97bc
00000390: 5ee9 373e 5b66 a8bd 9af5 bdbc d1ac a73d
000003a0: dde4 3dbd 3f1c 80bd 2961 55bd 4e57 863c
000003b0: d8ee 2cbd e88c 4d3d e4ac c73d d3c9 083c
000003c0: 71ef 4d3d a5d6 023d 6ce2 3cbb 2423 93bc
000003d0: 522b 213d 4a36 253b 97ef 7c3d a7e5 3fbc
000003e0: 2394 4cbd aee2 953c 4928 e4bb 9760 013c
000003f0: 00f5 4f3e 54e4 3bbd 4696 413d cf6b ac3b
-0.017661666 -0.029000796 0.006081843 0.003984225 0.08251205 0.017081743 -0.023752272 -0.5791491
-0.035666097 0.017452983 0.02366003 0.035294183 0.12736322 -0.04915101 -0.038970612 -0.088033065
-0.057410095 -0.022924066 0.10588255 -0.09603689 -0.053321894 0.061945397 0.0156091405 -0.027914668
-0.002065812 0.04495932 0.06517586 0.031540945 0.05180728 0.022138983 -0.07544943 0.060179047
-0.009689614 -0.013888305 -0.029303037 -0.030701164 -0.029031267 -0.09615341 -0.28770766 -0.0025440154
-0.026394779 0.0059388964 -0.015373974 0.013852598 0.01864204 -0.013724678 0.026175365 0.0021797365
-0.055188227 -0.033429958 -0.07745213 -0.007589464 -0.010801847 -0.021502487 -0.03558691 -0.001886026
-0.025165536 -0.011874065 0.031652566 -0.013454991 -0.04441585 0.01701309 -0.0027267488 0.012898661
0.0341314 -0.058359347 0.029306099 -0.023199115 -0.05280246 -0.025122551 -0.13524154 -0.023965223
0.031015309 0.06793931 -0.0028145849 0.080637634 0.03825877 -0.04394757 0.04606699 0.017681552
0.04108501 -0.10408785 -0.024516473 -0.002613201 0.010313583 -0.019968696 -0.024334375 0.02433355
0.04603012 -0.17259818 0.010264306 -0.0033671209 -0.028428094 0.0067792237 0.08189549 0.026608096
-0.067183755 0.02053545 0.17286643 0.03722839 -0.124256514 0.012155452 -0.053784255 -0.026094703
-0.047685187 -0.04693085 -0.030073203 -0.0005547338 -0.051357858 -0.03956476 -0.03519944 -0.013627979
0.01759596 -0.019852139 -0.009696966 -0.02172194 0.056736156 -0.04438026 -0.041412704 0.048244156
-0.008442905 0.042099133 0.011453642 -0.03364117 -0.007852523 -0.15721077 0.052538518 -0.022447694
-0.06571836 0.017272923 0.013969171 0.032303516 0.020776462 -0.03302215 0.048536792 0.06597903
-0.037665587 -0.008407707 0.05539701 -0.020987386 0.0026933544 -0.010018209 0.018986868 -0.048602678
0.20445518 0.019333815 -0.0064230133 -0.03622128 -0.030637575 0.015432387 -0.04924525 -0.036781944
-0.034847405 -0.05296039 0.0044521997 -0.020390576 0.6744253 0.07910777 0.019956218 -0.022030994
0.051344372 0.024726836 0.053598635 0.002967105 0.015415769 0.037896316 0.023575123 0.034231547
0.010205723 0.02643834 0.05187502 0.028084654 -0.00960839 -0.039499726 -0.010434907 0.04187469
-0.024970507 -0.059205018 0.044161193 0.008694826 -0.14753082 0.006383904 -0.053241197 -0.021778008
-0.026650885 -0.07023624 0.032382607 0.040179495 -0.0341757 -0.04573517 0.0432763 -0.027979163
0.0034930855 0.03159621 0.047412384 0.0019279064 0.014975997 -0.15876144 0.17494461 0.021251835
-0.05784998 -0.007120069 -0.04463974 -0.011575928 0.005987701 -0.03333737 -0.011742695 0.07590619
-0.17466822 0.029711626 -0.025473312 0.017917914 -0.12991318 -0.02243309 -0.11327035 0.017588964
0.0474512 0.08679583 0.02096587 0.90036327 -0.05590468 -0.024705932 0.0072134184 -0.024258764
0.011189124 -0.049933665 -0.01440735 -0.01850979 0.17960116 -0.08222648 -0.023188401 0.08187259
-0.04636084 -0.062553875 -0.052094612 0.016399052 -0.042219967 0.050183207 0.09749773 0.0083489
0.050277177 0.031942982 -0.0028821481 -0.017961092 0.039347954 0.002520936 0.06175193 -0.011712468
-0.04994596 0.018296566 -0.00696281 0.007896564 0.20308304 -0.045872048 0.047262453 0.005261875

encoder.0.bias f4 [128]
00000000: 5501 48bc 3842 30bd 760a 0ebd 765a e23c
00000010: eb15 49bc c75a 39bd 4f21 6ebd f4bd ea3c
00000020: 7ce6 4c3d 155e 2b3d 2b99 893c e5d0 403b
00000030: ca51 213d 7117 84bc 0682 0dbc 94bb b1bc
00000040: 2259 033d c459 f53b efde 2e3d d99f 81bb
00000050: 7a64 863c 9fa9 cfbc 6685 35bd c02f e8bb
00000060: 1135 9d3c d10e 5a3d af59 96bc 0f7d a1bb
00000070: 6132 3cbc 2dab 6bbd 7218 92ba 14ab 83bd
00000080: f19b 793c e1ee 5fbd 293a c0bc 1a48 0dbd
00000090: 389b 2a3a 591f 8f3c 9f8d c13c 0088 4d3d
000000a0: 9153 4e3d 1668 f7bc 6dc8 44bd 55a8 763c
000000b0: b349 04bd 3f4f 343d b2fe f2bc bd43 753d
000000c0: 0eeb 44bd eac0 6e3c f95f eabb 6721 7fbc
000000d0: bdbd 07bc e523 293d 79ce bfbc d6fa c6bc
000000e0: b568 babc 6a10 063c 1870 17bb a8fb 01bc
000000f0: ccd0 de3b 9d8d cc3c bee0 213d 6fbe 2d3d
00000100: dde7 17bd 8e27 0c3d 7dad ee3c 0a3d 2c3d
00000110: 5906 e23c 4836 f8bc d786 e43b 4c9e 293d
00000120: 2976 8dbc 722f 103d 93d2 46bd 96a1 56bc
00000130: a69a 85bc d1cc be3c d3cf dd3c 4ab1 873d
00000140: b38e 803c cfea 08bd 2017 cf3b d414 02bd
00000150: 7ea1 9a3b b9a0 a43c 14d6 293d 2b3e 323d
00000160: 0976 3dbd 8837 403d 7321 23bd f625 f4bc
00000170: b3fb c4bc be46 143d f2ed 84bb 61e5 02bc
00000180: e32d aebc 1cbd ef3c a4f7 a43b 4b81 123d
00000190: dd88 e53c db83 4b3d b590 983a d202 2cbd
000001a0: 92b4 0ebd 470f a23c 7e0c c33c 22e9 6e3c
000001b0: 33a1 debc 89b0 0b3c a96d d43c 0c13 eebc
000001c0: b058 e93c 667c 57bc 40d5 bb3c b693 edbc
000001d0: 9e4a 033d 2be5 ccbb 8762 e6bc cb35 0b3d
000001e0: cd45 2e3d a561 9cbc 98ca 323d ca95 0ebd
000001f0: 3d82 e1bb 556b a43c eef1 393c 6788 81bc
-0.012207349 -0.0430319 -0.034677945 0.027631026 -0.012273292 -0.045252588 -0.058137234 0.02865503
0.050024495 0.04183777 0.016796669 0.0029421386 0.03938464 -0.016124459 -0.008636957 -0.02169589
0.032067426 0.0074875075 0.042693075 -0.003955823 0.016405333 -0.025349436 -0.04431667 -0.0070857704
0.019190343 0.053236786 -0.018353311 -0.004928238 -0.011486621 -0.057536293 -0.0011146201 -0.06429115
0.015234933 -0.054671172 -0.023465233 -0.03449259 0.0006508115 0.017471002 0.0236271 0.050178528
0.050372664 -0.030201 -0.048042703 0.015054782 -0.032296848 0.044020887 -0.029662464 0.059879053
-0.048075728 0.0145723615 -0.007152554 -0.015571929 -0.008284983 0.041293997 -0.023413884 -0.02428953
-0.022755006 0.008182624 -0.0023107585 -0.007933535 0.006799793 0.02496987 0.03952097 0.04241794
-0.037086356 0.03421741 0.02913546 0.0420504 0.027590917 -0.03029932 0.006974082 0.04141073
-0.017268257 0.035201497 -0.048540663 -0.0131000485 -0.016309094 0.023291023 0.027076637 0.06625612
0.015693044 -0.033427056 0.0063198954 -0.031758144 0.0047189584 0.02009617 0.041463926 0.04351632
-0.046255145 0.04692796 -0.03982682 -0.029803257 -0.0240458 0.036200278 -0.0040566856 -0.0079892585
-0.021262115 0.029264979 0.005034404 0.035767835 0.028019363 0.049686294 0.0011639806 -0.041994877
-0.034840174 0.019782675 0.023809668 0.01458195 -0.027176475 0.008525976 0.025931196 -0.029061817
0.028484672 -0.0131522175 0.022928834 -0.029001098 0.032053582 -0.006252905 -0.028123153 0.033986848
0.042547036 -0.01908953 0.04365024 -0.03481082 -0.0068819807 0.020070711 0.011349184 -0.015812112

encoder.2.weight f4 [32, 128]
00000000: efdb 40bb 9455 603c f5e9 323b c2bc a4bd
00000010: be07 aa3d 051e 923d 472d 423d 2f1e 35bd
00000020: d2c4 5fbd 2720 8fbc 9bda 24bc cfcb a73d
00000030: b2e6 843c e9ad 863d 7b3f 15bc 397d b5bc
00000040: f18c 8f34 9e72 5b3d 1a1a debb 52a5 febd
00000050: 6063 343c 613e 373d be71 9b3d fb00 153d
00000060: 5192 133d 3ccc 6a3d c2d3 a5bd 6d3c a4bd
00000070: d533 4dbb 6070 64bd f68f 9abd 5864 c83b
00000080: adaa dfb8 0703 463d 3046 6237 9958 0ebc
00000090: fd96 22bd 5b6b 95bc af75 a7bd 8faa 97bd
000000a0: 49c8 c2bb c1eb 69bc afaa dabc 57cc d4bc
000000b0: 4cd6 e1bb 7d64 2d3d 0329 0bbc e451 b6bd
000000c0: b936 2d3c 7049 d2bd a420 8bbd a045 1a3d
000000d0: 83b6 93bd c6aa 383c 6516 b03d f010 803c
000000e0: 316d 9cbd e6a7 c93c a99c 01bd 88a8 adbd
000000f0: f375 dabc 3950 1c3d cfad a23d 8bde 3c3d
00000100: 0d6f b7bb 0a26 e63c ca3a 01be e166 1a3d
00000110: 5543 99bd e469 a5bd d51a 91bd b84b 17bd
00000120: 54a7 60bb dd10 f2bd 4d95 f03c 0c68 383d
00000130: a078 a83d 943e 783d be02 a5bd 49fb d9bd
00000140: bd83 91bc 5a01 43bd ac4b b3bc 4822 ffbc
00000150: eb9b d23b 27e4 633c 3e8b 61bd 7b4d b3ba
00000160: 17e2 bf3c 2880 d3bd dee8 64bd 6592 f8bb
00000170: e1c9 873c 1798 8dbd 4675 833d 56e2 f9bc
00000180: ec85 923d b855 f1bb b002 08be 6c2b ff3c
00000190: 3a9f 473c 6344 1d3c 8008 173d 4a27 4d3d
000001a0: 37db 37bd 0d37 afbd c569 603d e40a 9b3d
000001b0: 8251 9fbd 7527 6dbd 9a0e 953d 1274 36bc
000001c0: 22db 62bc 8729 3cbc 29b8 acbc f4e6 94bc
000001d0: 8a70 a53b 15a3 343d 5869 ce3c 8e69 52be
000001e0: 1258 1b3d e828 a1bd 6515 75bd c012 43bc
000001f0: 5afa 263d bd31 a83d 192a 26bd 1bdf 58bc
00000200: e214 463d 9df8 ae3d dc99 a9bc 2f35 143c
00000210: 67cb 9ebd 2b06 173c f796 2ebc a5a5 91bd
00000220: 1769 dbbc 66b3 8a3d 926a 983c 9c39 9bbd
00000230: b6e8 ddbd 7903 c5bc b172 bebd 8981 87bd
00000240: 58c5 99bb 0a4a 88bd 735a de3b bc25 903c
00000250: c7a3 8cbc 7789 5b3d 79d1 08bd 55fa 92bd
00000260: 5135 a2bd 0036 02bd 9358 d4bd 5a92 9e3d
00000270: b045 29bd 02e2 6cbd 8282 a93d 4990 4d3d
00000280: 2fd9 653c 0915 993d fe2a 54bc 4b3d fbbd
00000290: b2f9 ec3b 5d9c 6ebd 8048 50bd f869 9d3c
000002a0: 6a16 fb3c c866 35bd b14d 1cbd b734 5f3c
000002b0: e87c 7bbd af32 983c 6d12 983d f1aa 4dbd
000002c0: 91ea 23be 5474 9b3d d976 7dbd 292c 8e3d
000002d0: e400 77bc f9c8 8f3c d3e5 b13d d2d0 1dbd
000002e0: 4fca 373c 1995 a83d f845 17bd cb64 cb3d
000002f0: b1b3 ae3d b2d4 b23d 864e adbd 338f 2dbd
00000300: 2349 623d 86aa cdbc 2150 9abd 3a09 7f3d
00000310: c1b2 b73c 8a00 9e3b 28b1 f53d bcf3 dabb
00000320: be84 ccbd 300c a23d ae18 54bd 4ab2 5c3d
00000330: 9d1e 5b3d b289 a63d a70c 20be 9b4a 90bd
00000340: eb86 91bd 1b23 713d 1f9e 8abd 1516 71bd
00000350: 6d8b 8ebd 75cb 83bd 78bf c4bd 58ba aebd
00000360: 9f7d 9cbc bfa9 273e 1af3 3f3c 3e51 2abd
00000370: 4ea0 8e3d 9721 cdbd aed6 c9bb 4b08 a1bd
00000380: b4cf d03c a5c4 80bd 487b fcbd d42c 1ebd
00000390: a0d9 913d 30f8 d1bd 5dd3 c1bb 7eda 2dbd
000003a0: 232d 9dbd 51cf 543d 3113 5abd a9fe 933d
000003b0: 0e5c af3d 4880 853c ef54 473d 4356 e43c
000003c0: cf50 62bd b52b 4a3c b03a 623d 3d8b 5a3d
000003d0: d3a3 85bd 083d c4bd b156 80bd 0a94 b83d
000003e0: 8b7a 323c 02a1 05bd 3f5f ff3c 4df6 fd3c
000003f0: cc93 f2bb da95 39bd 963b 8dbd 052c 523c
-0.0029427966 0.013692278 0.0027300094 -0.08043815 0.08302258 0.07134632 0.04740646 -0.04421824
-0.05463106 -0.017471386 -0.010061885 0.0819317 0.016223285 0.065761395 -0.009109373 -0.022154437
2.6738374e-07 0.053576104 -0.006778014 -0.12433876 0.011010021 0.044737224 0.07590054 0.03637789
0.03602821 0.05732368 -0.0809703 -0.08019338 -0.0031311412 -0.05577123 -0.075469896 0.0061154775
-0.000106652595 0.04834273 1.34869915e-05 -0.0086881155 -0.039694775 -0.018239668 -0.08176743 -0.07405578
-0.005944286 -0.0142773995 -0.026692716 -0.025976343 -0.0068920013 0.04233216 -0.008493665 -0.08902338
0.010572129 -0.10267913 -0.06793335 0.037664056 -0.07212546 0.011271184 0.085980214 0.015633076
-0.07638014 0.024616193 -0.031643543 -0.084794104 -0.02666757 0.038162444 0.079433076 0.04611067
-0.005597955 0.02809431 -0.12620082 0.03769577 -0.07483546 -0.08076838 -0.07085196 -0.036937445
-0.0034279423 -0.11819623 0.029368067 0.0450211 0.082261324 0.060606554 -0.08057164 -0.10643632
-0.017763013 -0.04760871 -0.02188667 -0.031144276 0.0064272783 0.013909376 -0.055064432 -0.0013679707
0.023423238 -0.10327178 -0.055886142 -0.007585811 0.016575756 -0.069137745 0.064188525 -0.030503433
0.0715445 -0.007364955 -0.13282275 0.031148635 0.012183959 0.009598824 0.03687334 0.050086297
-0.044886794 -0.08555422 0.05478837 0.075704366 -0.07779218 -0.057898957 0.07278176 -0.011136072
-0.013846191 -0.01148451 -0.021083908 -0.018176533 0.005048816 0.04410084 0.025196716 -0.20548078
0.037925787 -0.078691304 -0.059834857 -0.011906326 0.040766098 0.08212612 -0.04056749 -0.013236786
0.04835976 0.08543513 -0.020703249 0.009045883 -0.0775364 0.009217779 -0.01065611 -0.07111672
-0.02678351 0.06772499 0.018605504 -0.075793475 -0.10835402 -0.024049507 -0.092992194 -0.06616504
-0.0046927147 -0.06654747 0.0067856847 0.017596118 -0.017167939 0.053597894 -0.033402894 -0.07176653
-0.079203255 -0.03178978 -0.10368457 0.07742758 -0.041326225 -0.057832725 0.082768455 0.05018643
0.014028831 0.07474715 -0.012949703 -0.1226755 0.0072319144 -0.05825459 -0.05085039 0.019215569
0.030650336 -0.044287473 -0.03816003 0.013623408 -0.061398417 0.018578855 0.074253894 -0.05021185
-0.16007449 0.07590547 -0.06188092 0.06942017 -0.015075896 0.017551886 0.086864136 -0.038529225
0.011217668 0.08231563 -0.03693196 0.09931334 0.08530367 0.08731975 -0.08462243 -0.042372894
0.05524553 -0.025105726 -0.075348146 0.06226466 0.022424104 0.0048218416 0.119966805 -0.0066818874
-0.09986256 0.07912481 -0.05178135 0.053880967 0.053495992 0.08131732 -0.15629826 -0.0704548
-0.07105812 0.05887137 -0.067684405 -0.05885895 -0.06960187 -0.06435291 -0.09606832 -0.08531636
-0.01910287 0.16373347 0.011715675 -0.041581385 0.069641694 -0.100161724 -0.006159625 -0.0786291
0.025489666 -0.06287507 -0.123282015 -0.03861697 0.07121587 -0.10252416 -0.005915089 -0.0424447
-0.07674625 0.051955525 -0.05324096 0.07226307 0.0856248 0.01629652 0.048664983 0.027873164
-0.055252846 0.012339522 0.05523175 0.053355444 -0.065253876 -0.09581953 -0.06266535 0.09012611
0.010893474 -0.032624252 0.031173347 0.031001234 -0.0074028727 -0.045308925 -0.06896131 0.012827878

encoder.2.bias f4 [32]
00000000: baa8 0cbd 840d 3d3d 31f6 8c3d b407 3dbd
00000010: b59e d0bd 3c5b a13d 46ae b6bd 2b85 ccbd
00000020: 3a49 733c f076 b0bd f703 c23c 2593 9abd
00000030: 94ac a1bd 6749 b03d dab0 c9bc 5c43 a1bc
00000040: 4a80 c93d fa0f bbbd 667e 85bd 18fc 453d
00000050: 9849 56bc 66f2 c4bc ad49 85bd b56a d1bd
00000060: e5fc f7bc ff34 7dbd b882 443d 1715 e1bc
00000070: ce26 a5bc 6c57 efbc f4e3 243d 46db 8c3c
-0.034340598 0.046155468 0.06882895 -0.046149924 -0.10186521 0.0787873 -0.08919959 -0.09986337
0.014849002 -0.086164355 0.023683531 -0.07547597 -0.07894245 0.086077504 -0.024620462 -0.01968544
0.09838922 -0.09133907 -0.06518249 0.04833612 -0.01307907 -0.024041366 -0.06508193 -0.10225431
-0.030271957 -0.06181812 0.047976226 -0.027475877 -0.020160105 -0.02921649 0.040256456 0.017194401

decoder.0.weight f4 [128, 32]
00000000: 086d 1dbe 6173 4bbd 1fc4 fabd e1ca b5bd
00000010: 78fa 25be ed97 123e 40c2 cc3d f1dc 563c
00000020: 39a5 cbbc cdd0 ed3d 88df 0b3b c3d6 383c
00000030: d648 2ebe be59 5abd 19ee 93bd 08ce 20be
00000040: ca0e 9f3c 33b8 043e b1d5 adbc 31ab 71bd
00000050: f856 f9bc b5c0 c53d 90fa 983d 543b fcbd
00000060: 0437 b8bd ee23 1e3e 6106 32bd 4360 053e
00000070: 4ae7 e9bd 4c5d 26be aadb 143e 71f7 bd3a
00000080: a877 673d e10d 04be 21b4 113e 08ce f5bd
00000090: a057 9b3d f37a d1bd 8b2d c83d 73f0 b53d
000000a0: db58 65bd 0910 043e 22d3 de3c f923 c53d
000000b0: 6bc3 a23c 3276 fc3c dc16 1cbe ab63 20be
000000c0: 35dc 103d 88e0 1d3d 427e 803c b4d5 013e
000000d0: f20c fabd 66a5 d83d d9a5 2e3e 6360 22be
000000e0: e6e0 1f3e 005d e23d fcfb ca3d 7f58 bbbd
000000f0: a44c 233d e62e c13c f8bd f53c 8728 abbd
00000100: 90ef c63d 79a2 f43d 8858 193d f335 e2bd
00000110: d3c3 f9ba 56c8 0a3d 87d2 d2bb ac5e d3bc
00000120: a287 2ebd 8e63 85bd dc64 ddbb 9b70 5a3c
00000130: 92b1 043e e10d 21be 1381 f93d f55f ddbd
00000140: 7f9d b8bb d96e 7f3d 89c2 95bc 9749 2ebd
00000150: 9e4b b43d 940b 1dbd 0bad 4ebd 8d3e 2fbd
00000160: d882 04bd 03bd ad3d f44d 47bd b3f7 b9bd
00000170: e83d 8cbd e233 bdbd 76c1 a1bb cd0d 093e
00000180: d87b c6bc 06e7 5ebd 0e20 d1bb 6f97 e3bc
00000190: c414 c8bd 0846 683c 1d77 253e c0d3 773d
000001a0: 9e19 00be e57c 833d 7ef3 e83d 1018 893c
000001b0: 2ca3 5d3c 9418 14be 9352 a63c 712e 2ebd
000001c0: 67ce a13d c11c 34bd 04fb de3d 8d44 4cbc
000001d0: 1f8d be3c aedd 123e 8f13 963d e9a0 4e3c
000001e0: e193 85bc e286 133d 1755 3a3e 1250 f9bc
000001f0: 0530 0fbe d4ec 8f3d 1602 04be 6784 c63d
00000200: f7e9 dbbc b8ef 15bd 95ba 2c3e ed9f a3bd
00000210: dad2 1d3e 101f 033e eadd 1e3e 3e8e 27be
00000220: 9889 81bd 541b e13d c42e 843d 0eb3 763d
00000230: 72ae 063e d7da 06be 3fa8 8a3b a16e 0bbd
00000240: bc0c a43d e6b2 d03d 81e6 dbbd b14b 1bbd
00000250: 14fe 973d ca7e b93d 843d 01be 7c1e 13bd
00000260: 1b1c 413d 2b17 003e 798e 313e 0ac8 093e
00000270: 1e0a 35be d6d5 053e 567e 29be e22e cd3d
00000280: 1982 24be 504b 0e3d d08f fa3d 34e9 9cbd
00000290: c4b4 7cbc 77bc 1a3e 6022 093e 08d4 7b3b
000002a0: 3e53 f2bd 1030 19bd ada2 f23d 8d7f c53d
000002b0: 546a b5bd 3e1f 6ebd f423 59bd c654 d3bd
000002c0: 8c60 30bd 0dce 2a3e 591a c83d 51cb 23bd
000002d0: d7de 2a3e 8a46 353e 1034 7ebd 9667 f6bd
000002e0: 886f afbd 2fcf c23d c5f5 14bd fec2 c3bd
000002f0: 7941 fabd fdce 27bd 8c2b 8ebd b9d6 6b3c
00000300: 3664 073d 33f8 a5bd 64fd 373e 9162 103e
00000310: 29e1 153e 8ac0 46bd 87da e1bd 5d22 023e
00000320: f0df 47bb 88bb 023d 4a9a 06be eb35 9c3d
00000330: 2ab9 203e 58c9 eb3d 0607 fb3c c854 253d
00000340: 55ca 4b3d aadb dd3c 5e5b fb3b cd1a 163e
00000350: 5229 f1bc 3dd5 253e c649 143e 1850 0fbd
00000360: adcb 28bd f7b2 e8bd 6e84 073e 1493 173e
00000370: a83f 1e3e 7a6f 7abd a0d1 37be 8df0 97bd
00000380: 931a f7bd d2cf 093e 800b 10ba 6efc 343e
00000390: d3dd b9bd 3123 1dbe 154e 753d c4b3 63bd
000003a0: ce58 33be fc72 d23d 16b6 f03d a2fa 33bd
000003b0: 13b6 253e 21f3 a9bd d2ea ddbd d37c 00be
000003c0: 6921 09be 3041 113e 6233 1fbe 67e2 043e
000003d0: 76a6 a73d a9c7 1b3e fa96 e3bd 211e a43c
000003e0: 468b b53d d89b b43d 6e6b 31be 77ee dfbd
000003f0: 5488 393d 3320 f43c 30dd 14be 5c94 cd3d
-0.15373623 -0.04967058 -0.122444384 -0.08876587 -0.16208827 0.14315768 0.09997988 0.0131142
-0.024859058 0.11612091 0.0021342952 0.011281672 -0.17019972 -0.05330824 -0.07223148 -0.15703595
0.019416232 0.12960891 -0.02122006 -0.05900115 -0.030436978 0.096558966 0.07469666 -0.123160034
-0.089948684 0.15443394 -0.043463115 0.13025002 -0.11421068 -0.16246527 0.1453692 0.0014493299
0.056510597 -0.1289592 0.1422887 -0.12002188 0.075850725 -0.10228529 0.09774312 0.08883753
-0.055992942 0.12896742 0.027200285 0.09626002 0.019868573 0.030818079 -0.15243095 -0.1566302
0.035366256 0.038544208 0.015685204 0.12679178 -0.122095 0.10578422 0.17055453 -0.15857081
0.15613136 0.110528946 0.099113435 -0.09147739 0.039868012 0.023581933 0.02999781 -0.08357339
0.09713662 0.11945052 0.037437946 -0.11045446 -0.0019055553 0.03388246 -0.006433788 -0.025801979
-0.04260982 -0.06513129 -0.006756408 0.013332511 0.12958363 -0.1572795 0.12182822 -0.10809318
-0.0056340094 0.062361572 -0.018281238 -0.04255065 0.08803485 -0.03834112 -0.050457995 -0.042784262
-0.032351345 0.08483317 -0.048658326 -0.09080448 -0.06847745 -0.092384115 -0.0049363924 0.13384171
-0.024228975 -0.05441954 -0.006381995 -0.02778217 -0.09769586 0.014176853 0.1615872 0.060504675
-0.12509772 0.06420306 0.113745674 0.016735107 0.013527673 -0.14462501 0.020303046 -0.04252476
0.07900696 -0.043972734 0.10887721 -0.012467516 0.023260651 0.14342377 0.07327949 0.012611606
-0.016305866 0.036017306 0.18196522 -0.030433688 -0.13983162 0.07027593 -0.1289142 0.096932225
-0.026844962 -0.036605567 0.1686805 -0.07989488 0.15412465 0.12804818 0.15514341 -0.16362855
-0.06325072 0.109915406 0.06454232 0.060229354 0.13152483 -0.13169418 0.0042314823 -0.03404105
0.080102414 0.10190372 -0.107373245 -0.03791398 0.074215084 0.09057386 -0.12621123 -0.035917744
0.047145944 0.12508838 0.17339505 0.13455215 -0.1767964 0.13069853 -0.165521 0.10018708
-0.16065253 0.034739792 0.12234461 -0.076616675 -0.015423957 0.15110956 0.1339202 0.003842594
-0.118322834 -0.03739935 0.11847434 0.09643469 -0.08858171 -0.058135264 -0.053012803 -0.103189036
-0.043060824 0.16680165 0.097706504 -0.03998882 0.16686569 0.1770269 -0.06206137 -0.12031476
-0.08566195 0.095121734 -0.036367197 -0.09558676 -0.12219519 -0.040968884 -0.069419 0.014394456
0.033054553 -0.08103981 0.17967755 0.141001 0.14636673 -0.048523463 -0.11028009 0.12708421
-0.0030498467 0.031917125 -0.13144794 0.076274715 0.15695634 0.11513013 0.030642997 0.040364057
0.049753506 0.027082283 0.007670804 0.14658661 -0.029438648 0.16194625 0.14481267 -0.034988493
-0.041209865 -0.1136226 0.13234112 0.148022 0.1545397 -0.06114147 -0.1795106 -0.07418928
-0.120656155 0.13458183 -0.00054948777 0.1767442 -0.09075513 -0.15345456 0.059888918 -0.05559136
-0.17514345 0.10275838 0.1175348 -0.043940194 0.16182737 -0.08298326 -0.10835804 -0.12547617
-0.13391651 0.14185023 -0.15546945 0.1297699 0.08186047 0.15212883 -0.11112781 0.020033898
0.08864455 0.08818787 -0.17326137 -0.109341554 0.04529603 0.02980051 -0.14537501 0.10038063

decoder.0.bias f4 [128]
00000000: ac0a efbd c1bd eb3d 7883 77bd 4f69 24be
00000010: 7742 203e 5600 ad3d b786 e73d 293e 2b3e
00000020: b5f9 9b3c 916f f03c 609f 8dbd f85e 07be
00000030: 4262 e93d 623c e53d cf4e e1bd 278a cb3d
00000040: b692 d7bd d363 173e 2249 7dbd 1ea4 313e
00000050: d45b d03d 8f23 cc3d 35da 913d f557 163e
00000060: 0320 ba3d 215b 71bd 46d6 fcbd 5431 143e
00000070: 9127 783c 2a60 af3c d78d e83c ec22 3fbd
00000080: 5131 813d c82f e03d de11 6d3d a777 c5bc
00000090: 553f 803d 082b ebbd 4993 e43d c5f4 6f3c
000000a0: 7817 083e 58b9 d43c 3c72 2ebd 6f49 97bd
000000b0: 1f0e 29be 040f 22bd ba84 263e 2485 4dbd
000000c0: 5e51 063e 261e 22bd 1098 1a3e 5ff0 6bbd
000000d0: a383 073e ebcd 163e d5c8 9b3c cfb8 f33d
000000e0: a874 c63d 6d9a 25bc dce3 10bd af9f c93c
000000f0: 782e 14be 7c70 253e 6be2 333e 07e2 a8bb
00000100: cee8 d9bd b301 453c e1da 92bd 2bbc a8bd
00000110: 1c83 e83c 2458 393d b721 fd3d 0c01 43bd
00000120: 82a2 223e 3856 c1bd ee3d b0bd a376 ab3c
00000130: 735b 02bd 2c99 683e 1251 213e 4a77 e23c
00000140: 5571 853d 5313 bd3d ac6b 4bbc 6548 e2bd
00000150: dcba 143d 7f29 043d fc98 cabc 0049 a23d
00000160: 6026 08be 2066 373e e083 0abe 6891 5a3e
00000170: 8de3 3b3e dd72 7c3c 08ee efbd 25e7 223e
00000180: 6e9f 093e 3e31 48bd 39a7 013e c830 d4bd
00000190: be88 b5bb 2885 1dbe 53ff 313c 7609 0abd
000001a0: dacd 19be 876f 3d3e 50fc 7b3d 7b87 e9bd
000001b0: 963a 37be 0042 04be f6dc a5bd 74d2 e03d
000001c0: e2b0 e13d bb27 70bd 416f 21be 2d90 aebd
000001d0: 5652 8abd ca94 903d bce0 b23d ac58 d93d
000001e0: e538 023e 50f3 3a3e 0857 0fbd 1abc 8d3b
000001f0: 59c8 ed3d 296d 8dbd c729 3f3e 41d3 163d
-0.116719574 0.11510802 -0.060428113 -0.16055797 0.15650354 0.0844733 0.11304992 0.16722931
0.019039968 0.029350074 -0.06915164 -0.13219821 0.11395694 0.11193158 -0.1100136 0.0993846
-0.1052603 0.14784174 -0.061837323 0.17347762 0.10173765 0.0996772 0.07121698 0.1468199
0.09088137 -0.058924798 -0.12345557 0.14471942 0.015146152 0.02140816 0.028387947 -0.046664163
0.063082345 0.109466136 0.057878368 -0.024104906 0.062620796 -0.11482817 0.11160905 0.01464576
0.13290203 0.025967285 -0.04258941 -0.07387053 -0.16509293 -0.0395651 0.16261569 -0.0501758
0.13116977 -0.039579533 0.1509707 -0.057602283 0.13233809 0.14726989 0.019016663 0.11900484
0.09690219 -0.010107619 -0.035373554 0.024612276 -0.14470851 0.1615619 0.1756684 -0.0051538977
-0.10640107 0.012024331 -0.07170654 -0.08239015 0.02838283 0.045250073 0.12359946 -0.04760842
0.15882304 -0.09440273 -0.08605562 0.020930594 -0.031825494 0.2271468 0.15753582 0.027644772
0.06515757 0.092322014 -0.012415808 -0.110489644 0.036311015 0.032266136 -0.024731152 0.0792408
-0.13295889 0.17910051 -0.13526869 0.2134453 0.18348522 0.015408245 -0.11715323 0.15908487
0.13439724 -0.048875086 0.12661447 -0.10360867 -0.0055399826 -0.15382826 0.010864097 -0.03370043
-0.15019932 0.18499576 0.06151992 -0.11402794 -0.17893443 -0.12915802 -0.080987856 0.10977641
0.11020066 -0.05863164 -0.15765096 -0.08523593 -0.067539856 0.07059629 0.08734271 0.10612616
0.12717016 0.18256879 -0.03499511 0.004325402 0.11610479 -0.06905586 0.1866828 0.03682256

decoder.2.weight f4 [384, 128]
00000000: d796 01bd 1030 b1bd a4dd b2bd 2843 933d
00000010: b46e 453d b45c c93c 37e3 b2bd 0914 6fbd
00000020: 623f a1bd ab2d 8c3a 8466 7bbc ec95 fc3c
00000030: f20a f53b 4cab a93d 0fbc 80bc 89b7 aebc
00000040: c4b3 8b3d 71a4 b6bc 868c 6bbd a9eb b33d
00000050: dbef df3c 182d cfbd ddd4 87bb 0f32 683c
00000060: 2346 b8bd 2a37 52bd 030e d0bd 4409 073c
00000070: b9e6 783d cf4f 76bd 1902 fd3c 8618 2dbd
00000080: 9e97 14bd 528d 9f3d d1d8 df3c 50a5 473d
00000090: 0796 763d e0fa 9bbd 7e2e 913d 1a4e 30bc
000000a0: 8e3e 953d f7d4 c53c 6130 6cbd 9b63 da3c
000000b0: c049 6b3d 65fb 833c 5604 88bc eb93 7abc
000000c0: b692 9bbd d4aa f7bc 54a6 6f3d a623 943d
000000d0: ad68 96bd c2f6 a8bd 7097 8cbd 24c6 8c3d
000000e0: 0e00 b1bd c24a a2bd b02f 97bd e240 5bba
000000f0: 9787 21bd 3ff4 26bd 04c3 823d 81ae 973d
00000100: 5be9 dbbd b9ec 283d 8928 4cbd 7f52 84bd
00000110: 563f b13c 648b 453d 421d ccbd 4ae9 89bd
00000120: 2901 b9bd 04ee 713d 43d5 643d 5fef 53bd
00000130: a3a2 153d 7b39 98bc 8da1 ebbc b67f 0fbc
00000140: 4b2b a03d 1f28 8c3d fe2f 85bd 4995 c8bd
00000150: 5668 403d c345 d93c 789d 823b 4eb9 14bd
00000160: b3d8 88bc 4a3e a3bd be8f 8a3d db42 d6bd
00000170: 887d 5c3b 6780 6dbd 1f3d 933c c8a7 88bd
00000180: 516d 2cbc 285d 8cbd f40b 993d 6cc4 a8bd
00000190: 0ca7 a4bd 84b0 f9bb 59a2 993d 876d bf3c
000001a0: 6824 7c3d 3e99 99bd 23bc 8fbd 5aa0 9bbd
000001b0: 8921 b43c b572 93bd 8c49 753d bf83 3abc
000001c0: e6ba fbb9 c95a 57bd 9938 5e3b ed04 b3bd
000001d0: bf2b 07bc e947 88bb 1bb5 943c 07a4 3e3d
000001e0: 6efc 8d3c 7a75 383d 1a8b 89bd 8985 523c
000001f0: 43ee b7bc a4bb 93bd 64a7 69bd 02ca c3bd
00000200: 28aa 25bd bbe0 713d b1b2 283d 8693 acbc
00000210: f323 78bd 3f05 7e3d 23ad 963c c48c 083d
00000220: 7fad 003d f06e 0bbd 564a 783d 482c aabd
00000230: 9212 8e3d d176 a43c 7e1c 85bd f4a3 093d
00000240: 9b09 90bc 9e33 aabd a488 ba3c 157f af3d
00000250: ce1b 8f3d 1578 a0bb 534e 4e3d 5a4c 3abd
00000260: a79e 953d 5fc0 963d 233e 353d 809a a73c
00000270: 50e8 0a3d 74d4 9c3b 6499 7ebc 855a 673d
00000280: 1135 c3bd 812c ee3c 49b3 4a3d d712 883d
00000290: f62b 033d 7dbb 7cbd c38d 0bbd 093c f13c
000002a0: c82f 6abd f904 bbbd b084 91bd 511a 9dbd
000002b0: 6dd2 6d3d 68a1 7dbd c50d bebd f3a7 753d
000002c0: 9a41 b33b 533d 473d 7077 563c c2ae 92bd
000002d0: f9be a4bd 3aeb c53c e2a4 b2bd 1dfd 7e3c
000002e0: 7678 2bbd b153 85bd 0d74 3ebd 74e1 93bd
000002f0: 89ba 2e3b c2a7 9ebd 8af8 1d3d 87ab 9dbc
00000300: 7f75 8d3c 3a73 523d 8bfb 40bd c83b 9cbd
00000310: 115b da3c fd19 95bd 7214 c4bc 9d33 98bc
00000320: 70f1 823c 15e3 a0bd 7bdd a5bb 615e 72bd
00000330: 7ad0 65bd 7659 02bc 24fc 2ebd 144c b0bd
00000340: bbe6 1b3d 9d3d 25bd 76a1 703c 2af8 4b3d
00000350: fe7c adbd 29d5 823b 7ff8 993d 9f03 12bd
00000360: 7bd3 883d dfdc e9bc fe54 92bd aa7c 473d
00000370: 0e17 823d e246 2c3c 3294 453d aed2 8abd
00000380: 8ab2 88bb ed17 c7bc 61ee 15bd 8aa8 90bb
00000390: 47f0 bbbd 27cf 3bbc 4d99 8dbd f4aa 333d
000003a0: 88e3 1f3d c8e4 17bd f2b6 cf3b 0b67 a3bd
000003b0: cc74 b0bd 6d0d 9f3d 6cdd 223d 4c81 913d
000003c0: b6eb dfbc 00e8 93bd ce9c 993d bb49 a83d
000003d0: fe7c 0abd 5fb0 8abc 8ba7 bdbd bc12 923d
000003e0: 0e49 9fbd 8ca5 5eba a922 a0bd 8448 91bd
000003f0: e948 543d a1b2 ac3d 5172 0dbc 9e29 a6bd
-0.031637993 -0.08651745 -0.08733681 0.071905434 0.048201278 0.024580337 -0.08734744 -0.058368716
-0.078734174 0.0010694762 -0.015344266 0.030833207 0.0074781114 0.082846254 -0.015714673 -0.02132775
0.06821397 -0.022295209 -0.05750706 0.08785183 0.027336052 -0.10116023 -0.0041452483 0.014172091
-0.089977525 -0.05132214 -0.101589225 0.008241955 0.06076691 -0.060134705 0.03088479 -0.042259715
-0.036277406 0.077906266 0.027325066 0.04874164 0.06020167 -0.0761621 0.07088946 -0.010760808
0.07287322 0.024149401 -0.057663325 0.026658824 0.05744338 0.016111085 -0.01660363 -0.015294055
-0.07596342 -0.030232824 0.058508232 0.07233362 -0.07344184 -0.0825019 -0.06864822 0.0687373
-0.086425886 -0.07924415 -0.073821425 -0.00083638553 -0.03943595 -0.040760275 0.063848525 0.07406331
-0.107378684 0.04124138 -0.049843345 -0.064610474 0.021636646 0.048228636 -0.09966518 -0.067339495
-0.090334244 0.05906488 0.055867445 -0.051741954 0.036532056 -0.018582096 -0.028763557 -0.008758476
0.078207575 0.0684359 -0.065032944 -0.09794099 0.046974503 0.026522523 0.003986057 -0.036309533
-0.016704893 -0.07970865 0.06765698 -0.104619704 0.0033644158 -0.057983782 0.01797348 -0.06672627
-0.01052411 -0.06853706 0.07472983 -0.082405895 -0.08039674 -0.0076199193 0.075016685 0.023367656
0.061558157 -0.07499932 -0.07018306 -0.07598944 0.021988647 -0.07199613 0.059884593 -0.01138395
-0.000480137 -0.052576814 0.0033908247 -0.08741174 -0.008250176 -0.004158963 0.018152764 0.046543147
0.017332282 0.04503391 -0.06715985 0.01284922 -0.02245248 -0.07213524 -0.0570444 -0.09560014
-0.040445477 0.05905221 0.04118604 -0.021066438 -0.06058116 0.06201672 0.018393105 0.03333737
0.03141546 -0.034041345 0.060617767 -0.08309227 0.06937136 0.020076187 -0.06499575 0.033603624
-0.017582705 -0.083106264 0.022770233 0.08569161 0.06987725 -0.0048971274 0.050367665 -0.04548297
0.07305651 0.073609106 0.04424871 0.020459414 0.033912957 0.0047860686 -0.015539501 0.05648281
-0.09531606 0.029073955 0.049487386 0.066442184 0.032024346 -0.06170224 -0.03407074 0.029447572
-0.057174474 -0.09131808 -0.07105386 -0.07671035 0.058062006 -0.061921507 -0.0927997 0.059974622
0.005470467 0.048642468 0.01309 -0.07162239 -0.08044238 0.024160016 -0.08722855 0.015563277
-0.041862927 -0.065101035 -0.046497393 -0.07220736 0.0026661477 -0.07746841 0.038567103 -0.01924683
0.01726794 0.05137942 -0.04711489 -0.0762859 0.026654752 -0.072803475 -0.02393553 -0.018579299
0.015984267 -0.078558125 -0.005061803 -0.059172038 -0.056107022 -0.007955899 -0.04272093 -0.08608261
0.03806184 -0.040341962 0.014686933 0.049797215 -0.08471106 0.003992696 0.075181 -0.035647985
0.06680962 -0.028547702 -0.07145117 0.048702873 0.063520536 0.010514947 0.048237033 -0.06778465
-0.004171674 -0.0243034 -0.03660429 -0.0044146227 -0.09176689 -0.011462963 -0.069140054 0.043864205
0.03903535 -0.037083417 0.0063389475 -0.07978638 -0.08616027 0.07766233 0.039761946 0.071047395
-0.027334075 -0.07221985 0.07500611 0.08217188 -0.033810608 -0.016929803 -0.09260472 0.071324795
-0.07777606 -0.00084932963 -0.07819111 -0.070939094 0.051827345 0.08432508 -0.008633212 -0.081134066

decoder.2.bias f4 [384]
00000000: daaf 06be e89f f3bb 0346 77bd 8b7c fa3c
00000010: 253a db3d 8c89 aebd 89c0 1a3c c226 aabd
00000020: f6cb f03c b4fb d7bd cb87 86bd 69ed a0bb
00000030: a8e5 87bd a301 95bd 85e1 963d 438c c33d
00000040: bf46 cb3b fdc6 053d 7e50 72bc a812 81bc
00000050: 457c 0a3d 6c07 9f3d 9f7d 54bd 300b d03d
00000060: 1f6b 2c3d d5e6 043c ce54 6ebd 2b4e 763d
00000070: 62b3 18be 1ea6 033d bec5 16bd ee68 ce3d
00000080: 652b aa3c 8fc7 333c 2f13 f63c 8d29 fe3c
00000090: 6613 61bd ae34 cf3c a79a 453d 98a5 cb3b
000000a0: 3e3a 0a3e 497a a0bd 32a3 8a3d 882e 573c
000000b0: 89aa 163d 68e0 cf3c 1824 e5bc 2554 4fbc
000000c0: 704b 50bb aacf 13bd e87d 1cbe ab34 083d
000000d0: cb82 aebd 5aea 5bbd 8c87 7bbd 06ad 8f3c
000000e0: bb9f 02bb 45b5 953d d226 ad3c d587 b4bd
000000f0: db11 083d 71cb 82bd d299 d23b a7ae ec3b
00000100: 0d09 cabc 5bfc fc3c dce1 213d 6d82 8a3d
00000110: ba53 8fbd c9a1 cfbc b2bc 47bd d1de d5bc
00000120: 3d17 b9bb f049 803b e555 6b3c 3c2e 3f3c
00000130: ec1b 8abd 95cf 4c3d 09bc b7bb 6191 ba3d
00000140: ec9e b93c 1d50 cc3b 6faf 873d 200d c83d
00000150: a4d1 d23c 4bf7 0d3d 10b3 22bc e0ba 7e3d
00000160: c165 d13d e220 4c3d 8bc3 933d 4728 953d
00000170: fb6f 89b9 03c8 00be 40e7 313d ab11 efbc
00000180: 4f02 b9bc ef5b 0cbd 6f61 e5bd 10a7 20bc
00000190: 3b4b 113d 66af fdbd c68c 74bd 172b 513c
000001a0: 3438 cf3d 9675 eebd b00b 933d 30e5 303d
000001b0: 6750 edbc 5831 71bd 8588 31bd 5b93 c23c
000001c0: e775 703c 445d eebb 5114 d3bd a05c 96bd
000001d0: b0ca adbc 817d ca3d 9150 9fbc 1063 053c
000001e0: 65fc 6bbd 1dc4 2e3d 3848 22bd 9861 31bc
000001f0: ea35 80bb 56a2 68bd d4c6 be3c bcdc a13d
00000200: 9a94 bfbb 91f2 c6bd c569 8e3c 8499 99bd
00000210: 1b5f 383d 9352 2a3d ab95 a5bc f7cb f5bb
00000220: 134c 3ebd 5417 17be 7183 e23b 8f0b 0ebc
00000230: 3467 c8bc be35 a43c 8e9e ba3c 0809 9dbc
00000240: f097 7f3d 433c 7abd d3b5 84bd 53d5 21bd
00000250: 79f3 933d d506 c6bb 408b 693d 2869 87bc
00000260: 6b6e 99bc 7185 b4bd b278 993d 7100 043c
00000270: baf4 71ba 9754 fdbd d2c5 153d cb37 293d
00000280: 6a44 dfbd 1c82 02be 3b28 ecbb fb47 dc3d
00000290: f63c 623d e288 993c 4e45 513c 3eb6 da3d
000002a0: e278 f8bb 5031 543d 043f f73c 7d8b 41bd
000002b0: 344d 73bd cfb1 093e 3b65 d83b 633d 1f3d
000002c0: c812 47bd 438a ccbc ca0d 67bd db3c a239
000002d0: 0c76 b93c 2527 2bbc 1aca cf3b 3c15 863d
000002e0: 0bac 163d cf13 f6bc f980 433d 1735 463d
000002f0: 43d2 343d abef bd3d 30a1 6d3d 5aee 3fbd
00000300: 2af2 493d d18e 96bd 2f99 91bb 5223 003d
00000310: 9c6e 1dbd 17d1 d3bc aaee d2bd a389 963c
00000320: 2355 31bc 0fb3 dcbd 74c9 1abd 0c19 693a
00000330: 9250 173e 08cb c03d 7254 513c fa35 b03d
00000340: 0510 50bd 1184 62bd f90a 7c3d de21 de3d
00000350: ff54 c53d ecae 2cbb abd0 9c3d 9659 80bd
00000360: bf80 753d 4877 2f3d 24da 6fbb d00f 003d
00000370: bf1e cb3c 68e5 9dbc a949 09bd dfdf d73d
00000380: 8154 853d 64c8 503c 0098 d73d 1098 083c
00000390: 2ee5 033d 73d7 0c3c 9c82 b4bc eb00 b3bc
000003a0: 9725 063d 312c f5bd 85b5 08bc 27dd ad3d
000003b0: 37d9 b4bd 429d 73bd f653 c6bc 4064 e1bd
000003c0: 431b 2bbd 33d4 d73c a4be 90bd f644 0f3e
000003d0: 2e7f 80bd 9b66 5b3c 70f7 b73d 6dc1 5c3b
000003e0: 13b9 cdbd d53a cfbc 221a 11bc 6a0d 8d3d
000003f0: 5a1c 81bd 66df 49bd 8315 ac3d cc58 b23d
-0.1315302 -0.007434834 -0.060369503 0.030576965 0.107044496 -0.08522329 0.009445318 -0.08308174
0.029394131 -0.105460554 -0.06568869 -0.004911114 -0.066356 -0.07275703 0.07367233 0.09548237
0.006203502 0.032660473 -0.014789699 -0.015755966 0.03380992 0.077650875 -0.051877614 0.10158384
0.042094346 0.008111675 -0.058186345 0.06013314 -0.14912179 0.032140844 -0.036809675 0.100786075
0.020772645 0.010972871 0.030038444 0.031025672 -0.05495014 0.025293674 0.04824319 0.0062148087
0.1349878 -0.07835824 0.06769408 0.0131336525 0.03678373 0.02537556 -0.027971312 -0.012654339
-0.0031783246 -0.036086716 -0.15282404 0.033253353 -0.085210405 -0.053690292 -0.061408564 0.017538559
-0.0019931633 0.07309965 0.021136675 -0.088149704 0.033220153 -0.063864596 0.006427028 0.0072229686
-0.024662519 0.030882051 0.039522037 0.06763158 -0.069983914 -0.0253457 -0.04876394 -0.026107224
-0.005648522 0.003915064 0.014363741 0.011668738 -0.06743607 0.050002653 -0.0056071323 0.0910976
0.022658788 0.006235136 0.06625258 0.097681284 0.02573473 0.034659665 -0.009930387 0.062189937
0.10224486 0.049836047 0.07215031 0.07283073 -0.00026214108 -0.12576298 0.043433428 -0.02918323
-0.022584109 -0.034267362 -0.112002246 -0.009805456 0.035472136 -0.1238697 -0.059704565 0.012766621
0.10118142 -0.116435215 0.071799636 0.04318732 -0.028969003 -0.05888495 -0.043343086 0.023751905
0.014676548 -0.0072743017 -0.103066094 -0.073418856 -0.021214813 0.09887219 -0.019447597 0.008141294
-0.05761375 0.042667497 -0.039619654 -0.010826491 -0.003912677 -0.05679544 0.023288168 0.0790343
-0.005846572 -0.097142346 0.01738442 -0.07499984 0.045012575 0.041582655 -0.020212969 -0.007501121
-0.04645927 -0.14754993 0.0069126417 -0.008669748 -0.024463274 0.020045158 0.022780683 -0.019169345
0.06240076 -0.061092626 -0.06479993 -0.039510082 0.07224173 -0.006043295 0.057017565 -0.016529635
-0.01872941 -0.088145144 0.07493724 0.008056746 -0.00092298875 -0.1236965 0.03656561 0.041312974
-0.10901721 -0.12744945 -0.0072069443 0.10755917 0.055233918 0.018742029 0.012772871 0.10679291
-0.0075827697 0.05180484 0.030181415 -0.047252167 -0.0593998 0.13446735 0.0066038645 0.038876902
-0.048601896 -0.024968272 -0.056409635 0.0003094439 0.022639297 -0.0104463445 0.006341231 0.06547019
0.036785167 -0.030038742 0.04773042 0.048390474 0.044145834 0.09274229 0.05801505 -0.04685817
0.04930321 -0.07351459 -0.0044433097 0.031283684 -0.038435563 -0.025856538 -0.10299428 0.018376177
-0.010823521 -0.1077634 -0.037789777 0.0008891977 0.14776829 0.09413725 0.012776481 0.08604045
-0.050796527 -0.05530173 0.0615339 0.108463034 0.09635352 -0.0026349379 0.07656988 -0.06267087
0.059937235 0.042838365 -0.0036598528 0.03126508 0.024794934 -0.019274428 -0.033517513 0.10540747
0.065102585 0.012743089 0.105270386 0.008337036 0.032200985 0.008596289 -0.022034936 -0.021851024
0.032750692 -0.119713195 -0.008344059 0.08489447 -0.08830493 -0.059476145 -0.024209958 -0.11005449
-0.041774046 0.026346302 -0.07067612 0.1399115 -0.062742576 0.013391162 0.08982742 0.0033684627
-0.10045066 -0.025296608 -0.008856328 0.06887324 -0.06304236 -0.049285315 0.084025405 0.08708343
